agent_arni/model.pt (torch_old, 521604 bytes, 10 tensors)

linear_1.weight f4 [200, 40]
0.12540038 0.35507727 -0.065934025 0.44584015 0.07168884 -0.082111135 1.4574609 -0.26525065
1.1584793 -0.027680106 0.052988607 0.29864547 0.49176913 -0.14299585 0.036918096 -0.33130345
0.40348047 -0.316342 -0.055009913 -0.05150021 0.12451961 -0.10889962 0.055596996 0.1251467
-0.33541152 -0.19029121 -0.0331098 -0.06800472 -0.2999524 -0.1039383 -0.14564578 0.18206891
-0.28518513 0.4337217 -0.06482498 0.093588434 -0.026306892 0.24925825 -0.043530367 -0.022415288
-0.13112944 -0.21909192 0.5144341 -0.03095722 -0.2739084 0.21485008 -0.10696667 -0.08667542
-0.19914436 0.13739163 -0.26072174 0.0052620433 -0.18985422 -0.16809236 0.012097826 -0.16576725
-0.3707211 -0.3473417 0.18704522 -0.116084024 -0.00079361233 -0.7836199 0.028979992 0.09651036
-0.7068945 0.10903851 -0.015622551 1.0381923 1.7109421 0.062676534 -0.277863 -0.07113943
0.265712 0.5979964 0.05620203 -0.13696899 0.04915295 -0.050999116 0.123209685 -0.09500621
-0.2601818 -0.1354684 -0.11711445 0.09950504 0.077846564 -0.09913004 -0.1588258 0.07162897
-0.09676925 -0.007706293 0.23592636 0.05776489 -0.08254308 0.12628408 0.029317766 -0.13329828
0.13291577 -0.036650855 0.17192824 -0.16285647 -0.15035716 -0.097047925 0.02010818 -0.013361795
-0.47536716 -0.070625566 0.09628379 0.13824892 0.16193102 -0.051497485 -0.25021365 0.3075455
3.8267565 1.7803346 -0.04288216 -0.05533881 0.0012981688 0.14211549 0.04729101 0.061254952
1.1531793 0.12777074 0.14828266 0.029168231 -0.13640168 0.7686059 -0.2878825 0.30116758
-0.1415036 -0.063534394 0.55601 -0.16526027 -0.106073834 -0.041737624 0.21073724 -0.16017103
0.0059570135 0.315368 -0.07589457 -0.16810705 -0.2094436 -0.13992478 0.13748726 0.13440132
-0.1673196 -0.1408502 0.11541995 0.2864871 0.070187606 -0.05104598 -0.36213845 -0.6605593
-1.9328858 0.2878405 -0.0018790617 0.16825284 0.029274616 -0.021885253 0.14168191 -0.0942578
-0.23466703 0.1361115 0.16099915 0.085383296 -0.050844297 -0.09869027 0.090779014 0.16005698
-0.27130246 0.062266454 0.008094865 -0.023831611 0.3534562 0.085635826 0.27598286 1.1044325
-0.3237314 1.2422159 0.0027455871 0.065560885 0.25859356 -0.030614648 0.29236305 -0.06040743
-0.30894893 -0.017072931 0.31395313 -0.26212275 0.30985492 -0.072214596 -0.15896313 0.4722839
0.43845114 0.32845727 -0.19327398 -0.0568333 0.060548183 0.03379634 0.00019800011 -0.37399998
-0.11121648 -0.088685945 -4.0180457e-06 -0.055458315 -0.03182791 0.054103382 -0.0093485005 0.22940207
0.07483209 -0.046963006 -0.15962648 -0.0870836 -0.25580227 -0.21342616 -0.049478076 0.31242839
0.6252274 0.23250043 0.06843677 0.21605472 0.3759839 0.7614005 0.579641 0.10011958
0.23800468 0.20465046 -0.03505156 0.32466793 0.24275339 0.00451189 0.21201456 6.224572
-0.35418594 -0.6229924 0.11525934 0.23869714 0.1003201 0.08875132 0.049092565 0.22136763
-0.1578129 0.10772421 -0.24888432 -0.028698407 0.10567559 0.7305313 0.0647983 -0.13156582
-0.060298365 -0.12668686 -0.0068373694 1.0891553 0.3060046 0.0473259 0.3740414 -0.20374382
00000000: f568 003e b0cc b53e 6b08 87bd 2945 e43e
00000010: 99d1 923d e229 a8bd 148e ba3f efce 87be
00000020: 0d49 943f 64c1 e2bc 950a 593d 0fe8 983e
00000030: 2ac9 fb3e 816d 12be 6e37 173d 9ba0 a9be
00000040: fe94 ce3e 94f7 a1be 1352 61bd e2f1 52bd
00000050: 2304 ff3d c406 dfbd adb9 633d 7526 003e
00000060: 0fbb abbe b3db 42be 249e 07bd 0f46 8bbd
00000070: 5c93 99be 9add d4bd 2b24 15be 4670 3a3e
00000080: c903 92be c510 de3e f6c2 84bd 4bab bf3d
00000090: 8d81 d7bc 8e3d 7f3e e64c 32bd 44a0 b7bc
000000a0: cc46 06be a259 60be f4b1 033f ff99 fdbc
000000b0: b93d 8cbe a901 5c3e 5711 dbbd e282 b1bd
000000c0: 80ec 4bbe 64b0 0c3e 527d 85be 386d ac3b
000000d0: 2569 42be 6720 2cbe f635 463c e4be 29be
000000e0: 28cf bdbe c5d6 b1be c888 3f3e 76bd edbd
000000f0: 6c0a 50ba 509b 48bf 7367 ed3c 39a7 c53d
00000100: 0af7 34bf 954f df3d baf5 7fbc 7ce3 843f
00000110: 2700 db3f 8e5c 803d 0f44 8ebe 8db1 91bd
00000120: 670b 883e 4b16 193f 1a34 663d 9941 0cbe
00000130: 9b54 493d 73e4 50bd 5c55 fc3d 9e92 c2bd
00000140: 8d36 85be 3ab8 0abe b3d9 efbd 4cc9 cb3d
00000150: 056e 9f3d b104 cbbd 3ba3 22be 36b2 923d
00000160: f52e c6bd 1285 fcbb ae96 713e e19a 6c3d
00000170: 590c a9bd 9d50 013e d02b f03c 587f 08be
00000180: 121b 083e 351f 16bd f50d 303e d9c3 26be
00000190: 3af7 19be 10c1 c6bd e9b9 a43c 6eeb 5abc
000001a0: 5363 f3be 23a4 90bd 7030 c53d 2091 0d3e
000001b0: 3fd1 253e 07ef 52bd 011c 80be 9b76 9d3e
000001c0: 94e9 7440 01e2 e33f 34a5 2fbd f3aa 62bd
000001d0: 5127 aa3a b986 113e 38b4 413d 79e6 7a3d
000001e0: 619b 933f 55d6 023e 69d7 173e 37f2 ee3c
000001f0: e2ac 0bbe 5bc3 443f 5665 93be a332 9a3e
00000200: 52e6 10be 521e 82bd ac56 0e3f fd39 29be
00000210: 3d3d d9bd 12f5 2abd 81cb 573e e003 24be
00000220: 0d33 c33b ea77 a13e 9d6e 9bbd 4124 2cbe
00000230: 6278 56be 7148 0fbe 76c9 0c3e 80a0 093e
00000240: d455 2bbe 093b 10be 4b61 ec3d 70ae 923e
00000250: 85be 8f3d 9715 51bd 366a b9be 6a1a 29bf
00000260: cd68 f7bf d45f 933e d94a f6ba 794a 2c3e
00000270: 52d1 ef3c b448 b3bc 1015 113e 3c0a c1bd
00000280: 8e4c 70be d060 0b3e f6dc 243e 70dd ae3d
00000290: 1c42 50bd 201e cabd 59ea b93d fae5 233e
000002a0: 28e8 8abe 1c0b 7f3d 53a0 043c 833a c3bc
000002b0: 36f8 b43e d661 af3d a04d 8d3e 0b5e 8d3f
000002c0: 1fc0 a5be ee00 9f3f 4fef 333b c944 863d
000002d0: 6066 843e 92cb fabc 9cb0 953e c86d 77bd
000002e0: 8e2e 9ebe 88dc 8bbc 77be a03e f434 86be
000002f0: 4ea5 9e3e 3fe5 93bd 3bc7 22be 32cf f13e
00000300: ab7c e03e 8d2b a83e 9de9 45be 09ca 68bd
00000310: 5f01 783d 086e 0a3d 409e 4f39 ed7c bfbe
00000320: 77c5 e3bd faa0 b5bd c0d2 86b6 4228 63bd
00000330: fc5d 02bd 829b 5d3d 742a 19bc 60e8 6a3e
00000340: 9141 993d 485c 40bd 2075 23be e358 b2bd
00000350: 84f8 82be 638c 5abe 86a9 4abd 9df6 9f3e
00000360: e70e 203f 9814 6e3e 9428 8c3d 733d 5d3e
00000370: f680 c03e 25eb 423f 5a63 143f 7f0b cd3d
00000380: 80b7 733e e48f 513e 3992 0fbd e03a a63e
00000390: 5894 783e 7ad8 933b 581a 593e b22f c740
000003a0: dc57 b5be 6e7c 1fbf 170d ec3d 066d 743e
000003b0: a074 cd3d 41c3 b53d 4915 493d 32ae 623e
000003c0: b499 21be 839e dc3d 88db 7ebe ec18 ebbc
000003d0: 726c d83d 1904 3b3f f9b4 843d 31b9 06be
000003e0: 6bfb 76bd 33ba 01be 030c e0bb 7169 8b3f
000003f0: a3ac 9c3e ced8 413d 5b82 bf3e 38a2 50be

linear_1.bias f4 [200]
-0.3799215 -0.6324919 -0.46938762 -0.2088301 -0.35035685 0.19559875 -0.21710218 -0.38691044
-0.079285294 -0.4901119 -0.10576831 0.22240481 -0.44933456 -0.47975746 -0.339077 -0.0820349
0.16916785 0.3230104 -0.31691155 -0.17875636 -0.437196 0.18037774 -0.58188605 -0.057045657
-0.6433226 -0.59556884 -0.34616897 -0.10165417 0.5499207 -0.15837699 0.0055423216 -0.21017443
-0.48008075 -0.6536149 -0.020699928 0.47329757 -0.65699595 0.26821595 -0.14085765 -0.09536346
0.5339973 -0.39594504 -0.2615521 -0.23100406 -0.6255303 -0.37699574 -0.25784484 0.25665817
-0.38918802 -0.810501 -0.53016514 -0.614552 -0.31604812 -0.7896542 0.010852376 -0.34308243
-0.35339782 -0.3519011 -0.6870486 -0.2546407 0.12002151 -0.45958892 -0.42725495 0.22726959
0.18668127 0.17593227 -0.406633 -0.12132332 0.027848978 -0.36231148 -0.36441243 -0.50795686
-0.003349203 0.1235662 -0.35242423 -0.76354843 -0.4385271 -0.36252934 -0.43517223 -0.07646061
0.50572646 -0.34645876 -0.7433787 0.17477556 -0.15360127 -0.4501067 -0.39434153 -0.5492903
-0.19423404 -0.21253303 -0.6259033 -0.5659194 -0.66866726 -0.3927249 -0.13482167 -0.32814115
-0.35163578 -0.25473964 0.1702572 -0.4749721 -0.53781956 -0.30479383 -0.19796425 -0.21168746
-0.2437235 -0.029593432 -0.5658067 0.24048889 -0.2638625 -0.3519139 -0.5847362 -0.4215863
-0.4594018 -0.6328938 -0.5006298 -0.6649091 -0.33393532 -0.6240102 -0.31035364 -0.7324997
-0.2949242 -0.18129553 -0.61011904 -0.16261584 -0.23995265 -0.327406 -0.23348807 -0.2708036
-0.47965428 -0.25781098 -0.16909273 -0.37214944 0.39509794 0.002077479 -0.27299187 0.03458743
-0.49287474 -0.32014686 -0.57271016 -0.44027364 -0.43611372 -0.3857893 -0.73510295 -0.21653493
-0.29198286 -0.2517713 -0.517138 -0.7081545 -0.113808505 -0.4527573 -0.029182108 -0.11011737
-0.019913357 -0.2618314 -0.24505551 -0.6389755 -0.64672095 -0.48237956 -0.32145593 -0.4313517
-0.62829065 -0.5261425 -0.7399834 -0.4265948 -0.46650788 -0.23297536 -0.18422274 -0.45165083
-0.574199 0.24247122 0.86224735 -0.5032287 -0.48821247 -0.44434962 -0.3296148 -0.2969163
-0.076665886 -0.26958105 -0.31494015 -0.925656 -0.36975184 -0.17690973 -0.49389946 0.07481663
-0.33729437 -0.06382201 -0.72827846 -0.48778525 -0.373496 -0.243091 -0.4036354 0.11553325
-0.33143383 -0.041970216 -0.2103045 -0.33330467 -0.38139522 -0.59636545 -0.48301545 -0.54237354
00000000: 1285 c2be fdea 21bf 9353 f0be 8fd7 55be
00000010: f961 b3be 0a4b 483e 0950 5ebe 2019 c6be
00000020: 5460 a2bd f2ef fabe 0e9d d8bd 16be 633e
00000030: 2e0f e6be c5a2 f5be 809b adbe ea01 a8bd
00000040: 563a 2d3e 9f61 a53e 3b42 a2be e80b 37be
00000050: 27d8 dfbe f1b4 383e 7cf6 14bf b5a8 69bd
00000060: cab0 24bf 3377 18bf 0f3d b1be 1030 d0bd
00000070: 9ac7 0c3f 942d 22be 5d9c b53b f737 57be
00000080: 25cd f5be 4e53 27bf e592 a9bc 0f54 f23e
00000090: e330 28bf 9a53 893e fd3c 10be eb4d c3bd
000000a0: 0cb4 083f 4fb9 cabe 28ea 85be 548c 6cbe
000000b0: c122 20bf 9605 c1be 3d04 84be b368 833e
000000c0: a743 c7be fe7c 4fbf e7b8 07bf 4853 1dbf
000000d0: 0fd1 a1be c726 4abf 2ace 313c 80a8 afbe
000000e0: 8ff0 b4be 622c b4be 6be2 2fbf 4460 82be
000000f0: d6cd f53d 3d4f ebbe 29c1 dabe 5cb9 683e
00000100: 6029 3f3e 9727 343e 3332 d0be 5c78 f8bd
00000110: 8a23 e43c e480 b9be 4494 babe 7609 02bf
00000120: 4d7e 5bbb 4710 fd3d f370 b4be e977 43bf
00000130: a086 e0be 729d b9be e5ce debe 6197 9cbd
00000140: 4a77 013f 0b63 b1be 114e 3ebf 5df8 323e
00000150: a749 1dbe 6374 e6be 22e7 c9be 4a9e 0cbf
00000160: 4ae5 46be 42a2 59be 333b 20bf 18e0 10bf
00000170: c72d 2bbf 3d13 c9be b10e 0abe 1e02 a8be
00000180: 9b09 b4be 3c6d 82be e757 2e3e 8b2f f3be
00000190: 8bae 09bf f00d 9cbe 24b7 4abe 99c4 58be
000001a0: a792 79be ed6d f2bc b5d8 10bf b842 763e
000001b0: fc18 87be 0f2e b4be 46b1 15bf 29da d7be
000001c0: b636 ebbe 5405 22bf 4629 00bf 7c37 2abf
000001d0: 92f9 aabe 22bf 1fbf ace6 9ebe 1a85 3bbf
000001e0: 4e00 97be 89a5 39be c330 1cbf c484 26be
000001f0: 26b6 75be c2a1 a7be 7f17 6fbe c5a6 8abe
00000200: 3f95 f5be cdff 83be a526 2dbe 5f8a bebe
00000210: 474a ca3e 5026 083b 97c5 8bbe 8dab 0d3d
00000220: 145a fcbe 4aea a3be 229d 12bf 8c6b e1be
00000230: 4c4a dfbe 2d86 c5be b52f 3cbf 55bb 5dbe
00000240: c77e 95be 2be8 80be 2863 04bf 9d49 35bf
00000250: 6f14 e9bd cecf e7be 510f efbc 3785 e1bd
00000260: 5621 a3bc c40e 86be d5ef 7abe e693 23bf
00000270: 818f 25bf 74fa f6be df95 a4be 21da dcbe
00000280: a8d7 20bf 46b1 06bf 8d6f 3dbf a26a dabe
00000290: 1fda eebe 1891 6ebe e3a4 3cbe c73e e7be
000002a0: b5fe 12bf 604a 783e 3ebc 5c3f 99d3 00bf
000002b0: fcf6 f9be cb81 e3be 45c3 a8be 6a05 98be
000002c0: 0103 9dbd 8706 8abe d63f a1be cbf7 6cbf
000002d0: 1d50 bdbe d327 35be 64e0 fcbe 7639 993d
000002e0: d9b1 acbe 1db5 82bd 7570 3abf fdbe f9be
000002f0: de3a bfbe d9ec 78be 4da9 cebe b29c ec3d
00000300: b2b1 a9be f6e8 2bbd 105a 57be e9a6 aabe
00000310: 3c46 c3be 68ab 18bf cd4d f7be fed8 0abf

linear_2.weight f4 [200, 200]
0.023253812 -0.09481044 0.6122293 -0.16612987 0.199621 0.06340695 -0.413906 -0.3067932
-0.025964241 0.14868726 -0.16748908 -0.3676047 -0.07044066 0.0058473293 -0.52996296 0.2835463
-0.26957452 -0.4314298 -0.2937761 0.17274414 -0.36608264 -0.20713115 0.05126615 -0.13989651
0.11241878 -0.22007434 -0.2105692 -0.60751855 0.052363638 -0.4225982 0.11605416 0.7573875
0.09881144 0.1750113 0.0021876732 -0.2618452 0.16492929 -0.16517217 -0.50920767 0.024794806
-0.7545172 -0.05160056 -0.13593122 0.09867249 -0.28400272 0.3208829 0.35892525 -1.1369847
0.10452948 -0.17309812 -0.44395536 0.03142661 -0.76244086 0.14062183 -0.15344372 -0.025200035
-0.19108924 -0.02458761 0.073437616 -0.2026041 0.09549136 -0.3390648 0.061248217 -0.6405047
0.26432413 -0.35842884 0.65942425 0.3303032 -0.020611195 0.013176761 -0.11951823 0.4251728
0.12177336 -0.8648083 0.2365676 0.35646296 -0.06931152 0.3539517 -0.07496611 -0.9812215
-1.2398791 0.12402119 0.6505215 -0.09201438 -0.24368604 -0.26669088 0.30583444 0.43249205
-0.090943545 -0.07562148 -0.09513725 -0.057709455 0.37950405 -0.18067054 -0.37135354 0.0869457
0.26332724 0.5505109 0.011123493 -0.16579066 0.25010428 -0.46629485 -0.18924376 0.47511047
0.13029678 0.21632789 0.30540633 -0.29336876 -0.05672093 0.59268457 0.66444266 -0.33736166
0.42972928 -0.24351683 0.15275732 0.27172324 -0.43755728 0.5747724 -0.27618808 0.123061776
-0.16149113 0.3656008 -0.09837508 -0.5555739 0.66369516 -0.1005165 0.33312327 -0.28278816
0.59334135 0.23771732 0.03583849 -0.023437139 -0.030663239 0.4657741 0.3595385 -0.3761588
0.51816714 -0.194353 0.018689388 -0.13002163 -0.050867777 0.21636054 -0.20175149 -0.5314573
-0.098607674 -0.17976734 0.25859165 0.10064572 0.24313271 0.38981652 0.55009145 -0.6720639
0.17016898 0.252538 -0.25633153 0.08392531 0.2100414 -0.22292139 0.55026895 0.20788008
-0.0011142362 -0.39744875 -0.08900469 -0.14743906 0.44020295 0.11787323 0.524472 0.24444793
0.4768602 -0.32147133 -0.16352174 -0.58212453 0.1717153 -0.047210902 -0.13299912 0.21567325
0.12151026 -0.3298162 -0.12088243 0.63462937 0.21195018 0.37465778 0.2508414 0.20281322
0.3240424 0.44478822 0.045527223 0.30358198 0.10295194 0.30099836 -0.00510609 -0.06438758
0.45482188 0.12828597 -0.35936773 -0.09531826 0.18970959 -0.28961492 0.124224395 0.39439395
-0.6235673 -0.27113864 0.005808152 -0.41631332 -0.38270292 -0.013898776 -0.20992942 0.051066052
-0.17739365 -0.11791302 0.7688505 0.54814696 -0.6106412 0.3130755 -0.20820767 0.06305808
-0.032946527 0.13377124 0.39420596 0.05865993 0.26574048 0.19265851 0.088925496 -0.6950724
-0.14009397 0.08501088 0.51182425 -0.12488837 0.092956886 -0.94070816 -0.30183962 -1.1453243
0.14311132 -0.0670798 -0.4869014 0.018934578 0.19361322 -0.12787174 0.15638806 -0.11726069
-0.20823042 0.21715772 -0.4763657 0.119059116 0.3040323 -1.0839005 0.4571406 0.22598884
-0.2696426 0.10352838 -0.009920088 0.44286785 -0.46889052 -0.39877498 0.37258247 -0.7638848
00000000: c77e be3c fa2b c2bd 0fbb 1c3f f31d 2abe
00000010: 7369 4c3e 81db 813d 7deb d3be 0014 9dbe
00000020: f6b2 d4bc 7941 183e 4282 2bbe af36 bcbe
00000030: 3143 90bd f49a bf3b a7ab 07bf fb2c 913e
00000040: ac05 8abe 5ee4 dcbe d269 96be d7e3 303e
00000050: 2f6f bbbe 301a 54be 74fc 513d 0841 0fbe
00000060: d13b e63d 2b5b 61be 749f 57be 5686 1bbf
00000070: 417b 563d cb5e d8be cead ed3d 26e4 413f
00000080: a75d ca3d 2a36 333e 115f 0f3b 9310 86be
00000090: 39e3 283e e522 29be 6f5b 02bf 7a1e cb3c
000000a0: 0a28 41bf 1c5b 53bd 8e31 0bbe cd14 ca3d
000000b0: ce68 91be c34a a43e 0dc5 b73e b788 91bf
000000c0: 8d13 d63d a240 31be 1e4e e3be 30b9 003d
000000d0: 532f 43bf 2bff 0f3e 5a20 1dbe 4e70 cebc
000000e0: e6ac 43be f56b c9bc 7666 963d 7377 4fbe
000000f0: f990 c33d e799 adbe 69df 7a3d 1ef8 23bf
00000100: 7e55 873e fc83 b7be 07d0 283f 801d a93e
00000110: cfd8 a8bc 57e3 573c f9c5 f4bd 40b0 d93e
00000120: 5064 f93d 1464 5dbf c73e 723e 5082 b63e
00000130: 33f3 8dbd 2839 b53e d587 99bd 5531 7bbf
00000140: 5cb4 9ebf d2fe fd3d 9488 263f 0972 bcbd
00000150: d588 79be b58b 88be 5596 9c3e 996f dd3e
00000160: 9c40 babd 6fdf 9abd 52d7 c2bd c060 6cbd
00000170: 5b4e c23e b301 39be 0d22 bebe 9610 b23d
00000180: d4d2 863e 48ee 0c3f 503f 363c 07c5 29be
00000190: ab0d 803e 33be eebe 1ec9 41be ae41 f33e
000001a0: 856c 053e 0f85 5d3e 385e 9c3e 6e34 96be
000001b0: 3554 68bd 2dba 173f ea18 2a3f abba acbe
000001c0: 7a05 dc3e 7a5c 79be 6a6c 1c3e 4f1f 8b3e
000001d0: 8207 e0be 4924 133f 8668 8dbe d007 fc3d
000001e0: ee5d 25be 0730 bb3e e078 c9bd 173a 0ebf
000001f0: ede7 293f 98db cdbd 228f aa3e 9cc9 90be
00000200: 38e5 173f 2b6c 733e 61cb 123d 3eff bfbc
00000210: 7931 fbbc f179 ee3e 6e15 b83e e397 c0be
00000220: 9aa6 043f 7904 47be 7d1a 993c 6424 05be
00000230: bb5a 50bd 9e8d 5d3e f197 4ebe 960d 08bf
00000240: d2f2 c9bd ee14 38be 2066 843e 581f ce3d
00000250: c8f7 783e 0896 c73e cbd2 0c3f 610c 2cbf
00000260: c740 2e3e a94c 813e e33d 83be 08e1 ab3d
00000270: 1815 573e 8145 64be 6dde 0c3f 84de 543e
00000280: 900b 92ba 677e cbbe 1748 b6bd 44fa 16be
00000290: 4862 e13e 8567 f13d cc43 063f 8f50 7a3e
000002a0: 0527 f43e e497 a4be 3e72 27be 1d06 15bf
000002b0: 23d6 2f3e 3860 41bd ec30 08be 73d9 5c3e
000002c0: 5fda f83d abdd a8be 3591 f7bd 1277 223f
000002d0: 7809 593e 25d3 bf3e 496e 803e 45ae 4f3e
000002e0: e3e8 a53e 48bb e33e c17a 3a3d 196f 9b3e
000002f0: 77d8 d23d 751c 9a3e fd50 a7bb a3dd 83bd
00000300: 6ade e83e 665d 033e 0cff b7be 3836 c3bd
00000310: 3b43 423e 6848 94be 5c69 fe3d 01ee c93e
00000320: 1ba2 1fbf afd2 8abe 4f52 be3b 0527 d5be
00000330: a3f1 c3be b1b7 63bc bdf7 56be a32a 513d
00000340: aea6 35be 627c f1bd 63d3 443f 5c53 0c3f
00000350: fb52 1cbf 6f4b a03e 6434 55be 9824 813d
00000360: f0f2 06bd 54fb 083e 5dd5 c93e 6545 703d
00000370: 230f 883e 4648 453e 921e b63d 44f0 31bf
00000380: cb74 0fbe 2f1a ae3d ea06 033f 79c5 ffbd
00000390: 2e60 be3d 40d2 70bf b98a 9abe fd99 92bf
000003a0: c68b 123e 2261 89bd 244b f9be b01c 9b3c
000003b0: 8b42 463e cff0 02be 3124 203e 5f26 f0bd
000003c0: 5b3a 55be 985e 5e3e 34e6 f3be 44d5 f33d
000003d0: 1faa 9b3e 40bd 8abf 550e ea3e 9e69 673e
000003e0: 980e 8abe b006 d43d dd87 22bc 93bf e23e
000003f0: 6b12 f0be 3c2c ccbe 21c3 be3e f48d 43bf

linear_2.bias f4 [200]
-0.7866899 -0.17471033 -0.17159401 0.16872142 0.12269977 0.15857267 -0.30939716 0.28332373
0.01904185 -0.15218574 -0.12471406 -0.08864941 0.19064195 -0.24917692 -0.17818362 0.3438329
-0.2427775 0.8487547 -0.061837126 -0.2089749 -0.028189853 0.060764436 0.2176064 0.11253468
-0.1651542 0.14903799 -0.33684638 -0.20536837 -0.06404934 -0.076104455 0.264036 0.039930914
-0.11340417 0.35803297 -0.075838074 -0.518201 0.16414598 0.42698672 -0.10219015 -0.18849504
-0.10733869 -0.17768095 -0.27215457 0.10665913 -0.110486954 -0.06857281 0.24387759 -0.15623984
0.26738355 -0.06469663 0.03326493 0.21584877 -0.48882362 -0.0097114695 -0.013023373 -0.07204003
-0.21676363 -0.12376515 0.18328214 -0.24397597 0.13409232 -0.022852756 -0.39229572 -0.0011412483
0.01171152 -0.10782634 -0.9873649 -0.1333411 -0.114430144 -0.31490058 -0.11860602 -0.10481621
0.06404975 -0.11454415 0.17491561 0.067199126 0.10849235 0.22252011 -0.01241736 -0.21904874
-0.258167 -0.110730596 -0.38947067 -0.48126918 -0.25655222 -0.13827275 0.19245726 -0.080516934
0.13513376 -0.13498884 -0.05556856 -0.21797092 -0.14379267 -0.087169915 -0.24398021 -0.30576277
0.004164543 -0.32298473 -0.0570779 0.42197412 0.048858244 -0.16430856 -0.114879556 -0.34205785
0.22371174 -0.37662798 -0.41145632 -0.122358516 -0.097338475 -0.22441153 -0.21613127 -0.012153331
-0.35376504 -0.19047691 -0.123161495 -0.26121688 -0.041071154 -0.110481195 0.10290708 0.10053463
-0.06123677 0.3169801 0.07013061 -0.010462241 0.101073064 0.78173655 0.2564536 -0.110837385
-0.08882692 -0.035405707 0.0058940346 -0.26432794 0.11683747 -0.07467294 -0.10367897 -0.1602202
-0.49097753 -0.21910384 -0.067975864 0.5785823 -0.08361926 -0.59111744 -0.07328476 -0.07377248
-0.022833474 -0.22081119 -0.12097212 -0.30438808 0.0975935 -0.00036387244 -0.059213072 -0.20741042
-0.08869289 -0.1518613 -0.06903278 -0.14344361 -0.11324077 -0.05076169 -0.09054519 -0.18005592
-0.088617966 -0.06785339 0.12770562 -0.0078342315 0.06624513 1.132538 -0.35727772 0.045186643
-0.08875353 -0.2212867 0.5072001 -0.55389154 0.26285422 0.018656543 -0.14941081 -0.15891
-0.15966985 -0.29086137 -0.14928697 -0.050509885 -0.30406296 -0.045735545 0.12345367 0.1957138
-0.10996359 -0.05185437 -0.16921778 -0.21947174 -0.06372899 -0.4085064 -0.0842274 -0.23216258
0.113680266 -0.40108567 -1.1517303 -0.07792235 0.2976299 -0.26617762 -0.22072686 0.010470066
00000000: 8264 49bf 44e7 32be 57b6 2fbe 4fc5 2c3e
00000010: 044a fb3d e060 223e 4e69 9ebe cf0f 913e
00000020: a7fd 9b3c 94d6 1bbe 166a ffbd d28d b5bd
00000030: a537 433e 3c28 7fbe c475 36be de0a b03e
00000040: aa9a 78be fd47 593f ed48 7dbd 84fd 55be
00000050: 68ee e6bc 21e4 783d 36d4 5e3e 9578 e63d
00000060: 2f1e 29be 6a9d 183e 2177 acbe 164c 52be
00000070: 4d2c 83bd a7dc 9bbd ba2f 873e 998e 233d
00000080: 7240 e8bd 1950 b73e fe50 9bbd d2a8 04bf
00000090: e215 283e 019e da3e 1249 d1bd d804 41be
000000a0: 63d4 dbbd fff1 35be d857 8bbe 1a70 da3d
000000b0: fc46 e2bd e76f 8cbd 0cbb 793e 56fd 1fbe
000000c0: 7fe6 883e ab7f 84bd cf40 083d 7607 5d3e
000000d0: 1747 fabe db1c 1fbc fc5f 55bc b989 93bd
000000e0: 49f7 5dbe 9578 fdbd 50ae 3b3e d6d4 79be
000000f0: 7f4f 093e b435 bbbc fcda c8be f095 95ba
00000100: ade1 3f3c 0ed4 dcbd f2c3 7cbf 928a 08be
00000110: 5a5a eabd a63a a1be b7e7 f2bd e2a9 d6bd
00000120: 842c 833d 2096 eabd 141d 333e b29f 893d
00000130: 3d31 de3d 50dc 633e 2f72 4bbc 504e 60be
00000140: 772e 84be b9c6 e2bd b368 c7be ea68 f6be
00000150: d05a 83be 5f97 0dbe 8413 453e 10e6 a4bd
00000160: 8160 0a3e 843a 0abe dc9b 63bd c533 5fbe
00000170: 633e 13be 2486 b2bd f3d5 79be f08c 9cbe
00000180: b876 883b 415e a5be 84ca 69bd fe0c d83e
00000190: 951f 483d 8140 28be f945 ebbd 3522 afbe
000001a0: b114 653e 62d5 c0be 67aa d2be 1a97 fabd
000001b0: 6559 c7bd 23cc 65be 8451 5dbe c41e 47bc
000001c0: b120 b5be 610c 43be 183c fcbd 38be 85be
000001d0: 3a3a 28bd f743 e2bd f2c0 d23d 1ae5 cd3d
000001e0: 68d3 7abd 374b a23e a3a0 8f3d d269 2bbc
000001f0: 65ff ce3d e31f 483f e34d 833e b6fe e2bd
00000200: e3ea b5bd 9305 11bd bf22 c13b fe55 87be
00000210: 7c48 ef3d 20ee 98bd a455 d4bd c410 24be
00000220: 6861 fbbe c25c 60be ee36 8bbd f81d 143f
00000230: 9340 abbd 7953 17bf 5216 96bd 0716 97bd
00000240: 440d bbbc 541c 62be 3bc0 f7bd c1d8 9bbe
00000250: 1adf c73d 22c6 beb9 6889 72bd 6663 54be
00000260: 9ea4 b5bd 8781 1bbe 0f61 8dbd e2e2 12be
00000270: c7ea e7bd 7deb 4fbd c26f b9bd 9460 38be
00000280: 567d b5bd b8f6 8abd 43c5 023e 265b 00bc
00000290: 87ab 873d 01f7 903f 1bed b6be a115 393d
000002a0: 69c4 b5bd fb98 62be ded7 013f d6cb 0dbf
000002b0: d494 863e 9bd5 983c 26ff 18be 4eb9 22be
000002c0: 7e80 23be c8eb 94be afde 18be 74e3 4ebd
000002d0: 24ae 9bbe 3255 3bbd 47d5 fc3d 3369 483e
000002e0: 9734 e1bd 3f65 54bd 6d47 2dbe 33bd 60be
000002f0: 5884 82bd c027 d1be 6a7f acbd 07bc 6dbe
00000300: 33d1 e83d 1a5b cdbe e66b 93bf c195 9fbd
00000310: f262 983e 6f48 88be 3906 62be a48a 2b3c

linear_3.weight f4 [200, 200]
-0.6888506 -0.09017882 -0.09298068 -0.109487094 -0.31882104 0.20469964 -0.42056307 -0.019922368
-0.011661645 0.35891458 -0.00040270732 -0.26532722 -0.40985003 -0.25892743 -0.20463681 -0.096203536
-0.32489264 0.09175014 0.019200861 -0.28084937 0.07137397 -0.087414145 0.041006826 0.2743219
0.30710465 -0.36601505 -0.12138839 0.07146275 0.02966915 -0.03557926 -0.062030513 -0.015570644
-0.097647294 0.23319955 0.0843028 -0.07817341 -0.173088 -0.08035283 0.052008305 -0.17555358
0.05491122 -0.068784766 -0.5409058 -0.04184576 0.019501189 0.0276184 -0.090212114 -0.034158014
0.23749126 0.14211425 0.16000813 0.102629334 0.026515968 -0.3735522 -0.02359027 0.00669444
-0.23738712 -0.22793421 0.087642685 -0.18047442 -0.3581184 0.0601387 -0.31732118 -0.04612288
-0.44042847 -0.6697813 -0.17454062 -0.26090905 0.12406749 -0.0050623817 -0.9174864 0.36600634
0.10170381 0.005156052 -0.11476305 -0.0033964247 0.104949065 -0.051916357 -0.07953274 -0.33348423
0.025570258 0.015094921 0.07972167 -0.58223355 -0.029733807 -0.018991096 -0.21864899 -0.15306783
-0.07888887 0.23936236 0.042192362 -0.069945365 -0.13681851 -0.052737042 -0.29992467 -0.55797505
-0.025944578 0.10018693 0.015331583 -0.14747359 -0.24473435 -0.61826736 0.31605056 -0.26501298
-0.45306763 0.0024339836 -0.1899262 -0.21084617 0.039457694 -0.34418705 0.13099551 0.17586783
-0.35272497 -0.13125324 -0.048904613 0.19520386 0.1746505 0.045598336 -0.3379654 0.01853406
0.14190017 -0.42028543 -0.5108432 -0.028357556 0.012389318 -0.20831181 0.0003898712 0.032332815
-0.48699436 -0.0018751184 -0.033147283 -0.27120054 -0.46025157 0.013588604 -0.019984117 -0.33386335
-0.172349 -0.13706861 0.037428137 -0.23143633 -0.28894487 -0.31752893 0.045762192 0.034468472
-0.024452006 -0.057482418 -0.063471444 0.20350568 0.26569918 -0.7262531 -0.021293266 -0.28298026
-0.024655297 -0.008958827 -0.05286964 0.04882974 -0.12353936 -0.019893302 -0.10782174 0.22714241
-0.0029033376 0.06985532 -0.2577663 -0.14073627 -0.078229144 0.0353161 0.1042199 -0.25072464
0.037531532 -0.15236898 0.1770987 -0.093656 -0.072227605 -0.16299678 0.04337731 -0.040150866
0.23627402 0.07415371 -0.35765383 -0.045488715 -0.11994483 -0.30233076 -0.47374317 -0.09444439
-0.06349639 -0.69011307 0.18785106 -0.12614541 -0.018934956 -0.1565456 0.006387476 0.12256215
-0.026326427 -0.38883737 -0.3319809 -0.066321425 -0.21236417 -0.07322056 -0.12307267 0.15287991
-0.4276796 -0.003810659 -0.19157605 0.21918067 -0.15592407 -0.33787277 -0.03837457 -0.119968295
-0.25383666 -0.13228996 0.004278552 -0.04740876 -0.23395221 0.09887546 0.0845584 -0.2253338
-0.2644585 -0.0784641 -0.03452045 -0.09408838 0.050185483 -0.27770388 -0.043380298 -0.34684795
-0.0087359175 -0.26722553 -0.2564056 0.025046162 0.107493475 -0.0121744545 -0.1770405 0.08676242
0.0854563 -0.009117711 -0.18073314 -0.034200672 0.056603324 -0.14523853 -0.10513547 0.04812175
0.034730088 0.08226839 0.07094823 -0.17301823 0.055616543 0.049895026 -0.21217415 -0.032479163
0.22224504 -0.48407993 0.039353814 -0.05161187 -0.3599113 -0.08037083 0.044813164 -0.06618679
00000000: 8358 30bf acaf b8bd a86c bebd c53a e0bd
00000010: 833c a3be c89c 513e 0b54 d7be 3c34 a3bc
00000020: 7c10 3fbc a7c3 b73e 7622 d3b9 f8d8 87be
00000030: ddd7 d1be 2392 84be 508c 51be 5c06 c5bd
00000040: 5458 a6be 7fe7 bb3d 204b 9d3c 7dcb 8fbe
00000050: 842c 923d 3006 b3bd c6f6 273d ec73 8c3e
00000060: d23c 9d3e 5366 bbbe 7a9a f8bd 105b 923d
00000070: b80c f33c 8fbb 11bd b513 7ebd 041c 7fbc
00000080: 4efb c7bd ddcb 6e3e f2a6 ac3d 6119 a0bd
00000090: fb3d 31be 0690 a4bd a906 553d 51c4 33be
000000a0: 96ea 603d 07df 8cbd cd78 0abf 7666 2bbd
000000b0: f5c0 9f3c fc3f e23c 21c1 b8bd 46e9 0bbd
000000c0: e930 733e 6686 113e 2cd9 233e 542f d23d
000000d0: 0438 d93c 3c42 bfbe 6240 c1bc 085d db3b
000000e0: 9c15 73be 9667 69be 027e b33d 49ce 38be
000000f0: 4c5b b7be ff53 763d ec77 a2be 58eb 3cbd
00000100: d77f e1be ca76 2bbf c7ba 32be df95 85be
00000110: 1917 fe3d 56e2 a5bb 64e0 6abf 2f65 bb3e
00000120: 164a d03d 19f4 a83b e408 ebbd 8d96 5ebb
00000130: 89ef d63d 3fa6 54bd 10e2 a2bd 72be aabe
00000140: b878 d13c b050 773c 1d45 a33d 420d 15bf
00000150: 5094 f3bc 3793 9bbc 85e5 5fbe d0bd 1cbe
00000160: 7d90 a1bd 681b 753e e6d1 2c3d 843f 8fbd
00000170: 271a 0cbe cc02 58bd ba8f 99be 74d7 0ebf
00000180: b989 d4bc ce2e cd3d 5231 7b3c 5103 17be
00000190: a49b 7abe c546 1ebf 61d1 a13e c8af 87be
000001a0: 7bf8 e7be 7883 1f3b 047c 42be 0fe8 57be
000001b0: 649e 213d 4939 b0be b023 063e b216 343e
000001c0: 5e98 b4be 4067 06be 3450 48bd 85e3 473e
000001d0: 95d7 323e 52c5 3a3d cd09 adbe bed4 973c
000001e0: 474e 113e a72f d7be 9fc6 02bf 1b4e e8bc
000001f0: 91fc 4a3c b14f 55be a067 cc39 6a6f 043d
00000200: 5357 f9be 88c6 f5ba 72c5 07bd ccda 8abe
00000210: 18a6 ebbe bca2 5e3c bbb5 a3bc 23f0 aabe
00000220: 427c 30be b75b 0cbe 3f4e 193d a5fd 6cbe
00000230: 95f0 93be 2793 a2be 2371 3b3d d02e 0d3d
00000240: 934f c8bc af72 6bbd 51fd 81bd cb63 503e
00000250: b909 883e b9eb 39bf 376f aebc cae2 90be
00000260: e8f9 c9bc 0bc8 12bc d68d 58bd b201 483d
00000270: 3402 fdbd 47f7 a2bc a5d1 dcbd 0598 683e
00000280: ec45 3ebb 4e10 8f3d f2f9 83be 2b1d 10be
00000290: 9a36 a0bd 9da7 103d 3e71 d53d fb5e 80be
000002a0: aaba 193d 9d06 1cbe 5d59 353e b8ce bfbd
000002b0: 11ec 93bd a1e8 26be 68ac 313d 3c75 24bd
000002c0: d1f1 713e e6dd 973d 671e b7be 6052 3abd
000002d0: a3a5 f5bd 19cb 9abe 778e f2be 0f6c c1bd
000002e0: 650a 82bd 40ab 30bf 075c 403e 432c 01be
000002f0: 7b1d 9bbc 7d4d 20be 084e d13b dd01 fb3d
00000300: 85aa d7bc b115 c7be 67f9 a9be 87d3 87bd
00000310: fe75 59be a9f4 95bd 860d fcbd 8d8c 1c3e
00000320: d2f8 dabe 40bc 79bb 832c 44be e670 603e
00000330: 8faa 1fbe a9fd acbe a72e 1dbd f0b1 f5bd
00000340: e1f6 81be 0577 07be 1833 8c3b b02f 42bd
00000350: 2b91 6fbe 387f ca3d f42c ad3d e7bd 66be
00000360: 1b67 87be c9b1 a0bd 5165 0dbd 69b1 c0bd
00000370: 4b8f 4d3d 342f 8ebe 8aaf 31bd 0e96 b1be
00000380: 1821 0fbc c9d1 88be 9847 83be 9c2d cd3c
00000390: 8a25 dc3d 5d77 47bc 1b4a 35be 7fb0 b13d
000003a0: b603 af3d 7462 15bc 1c12 39be 0116 0cbd
000003b0: e3d8 673d 69b9 14be 4451 d7bd 501b 453d
000003c0: 2341 0e3d 547c a83d 4e4d 913d b12b 31be
000003d0: 2cce 633d ba5e 4c3d 2e44 59be df08 05bd
000003e0: 3494 633e 53d9 f7be 7731 213d f866 53bd
000003f0: 4b46 b8be 7699 a4bd 028e 373d f18c 87bd

linear_3.bias f4 [200]
-0.12195687 -0.047096036 0.5957346 -0.010658779 0.06754259 -0.41794455 -0.15036081 -0.5613265
0.119145945 0.50183165 0.018992908 -0.06498476 0.113172464 -0.053864256 -0.17226586 -0.594309
0.098588206 -0.83597356 -0.07567222 0.012292285 -0.1636213 0.0036154995 -0.24996819 -0.20461194
-0.1748192 -0.3067307 -0.22343312 -0.013273006 0.22587803 -0.083678454 0.2881841 0.22196962
0.5174234 -0.13236919 0.12775938 -0.21287474 -0.23570879 -0.1392256 -1.1296769 -0.043911614
0.017531585 0.58460754 0.8348064 2.1388924 -0.6488609 0.33717605 -0.67976123 -0.5935347
-0.6321109 -0.23700556 -0.48135087 0.7122146 -0.20212713 -0.037433233 -0.16429703 0.25962877
0.14483027 -0.12864481 -0.28511706 -0.026907101 -0.1970707 -0.10992967 -0.19996239 0.1393845
0.1616272 -0.17198944 0.032178815 -0.3057107 -0.04599087 0.20431332 0.15568443 0.23771705
0.31371945 -0.21726413 -0.31911278 0.009461051 -0.4971994 0.19815408 -0.019343214 -0.08839049
0.11126073 -0.098068304 -0.73326266 0.051857516 -0.17411701 -0.2885149 0.18834478 0.030645015
-0.29304388 0.07733887 -0.19353677 -0.0846574 -0.2781036 -0.33433375 0.022048082 -0.15495943
0.21354386 -0.18530579 -0.45348153 -0.85844445 -0.22864512 -0.286683 0.46898076 0.023451496
-0.48694772 -0.122801855 -0.24941117 -0.11254069 0.038342997 -0.49011958 -0.29898733 0.56939656
-0.71772444 0.13420567 0.18812588 -0.7019322 -0.22067356 0.33523035 -0.099012546 0.5659799
0.10214557 -0.3175728 -0.4829904 0.14101034 -0.8815521 -0.8805853 0.06751352 0.15636651
-0.38252214 -0.1407134 0.35574266 0.07186245 -0.13329287 -0.07978525 -0.117099665 -0.08476103
-0.35313836 -0.2250083 -0.09213959 -0.4044569 -0.5602839 0.09361717 -0.12608047 0.58734524
-0.008870628 -0.009443039 -0.3458558 -0.23647186 -0.0013420153 -0.37471676 -0.21586567 0.7346616
-0.0031052753 0.09953954 -0.23513475 -0.1857034 -0.60805166 0.02480553 -0.27619386 -0.6162355
-0.16289148 -0.22616589 0.51143676 0.1688938 -0.6848845 -0.028074536 0.55413747 -0.17029312
-0.4915274 -0.30735496 0.48155183 -0.20605314 -0.48266914 -0.117400825 0.1224985 0.015987324
-0.022180356 0.17938283 -0.17761564 0.16401538 0.1342014 0.6173642 -0.226627 -0.27429757
-0.011315528 -0.3270752 -0.108388536 0.20352092 -0.039078802 -0.10575462 -0.34602407 -0.58763486
0.13467245 0.06333287 -0.43584812 -0.015637703 -0.20134547 -0.5403049 -0.67772824 -0.12609899
00000000: 86c4 f9bd c6e7 40bd 1082 183f 29a2 2ebc
00000010: c553 8a3d d4fc d5be 2ff8 19be 18b3 0fbf
00000020: ca02 f43d 0a78 003f 0497 9b3c bb16 85bd
00000030: f7c6 e73d c4a0 5cbd 7666 30be a224 18bf
00000040: 9de8 c93d 5d02 56bf 09fa 9abd 9565 493c
00000050: 588c 27be 04f2 6c3b a9f7 7fbe cb85 51be
00000060: ce03 33be ce0b 9dbe a7cb 64be 0677 59bc
00000070: 924c 673e 9c5f abbd de8c 933e 014c 633e
00000080: dc75 043f ca8b 07be 5bd3 023e d6fb 59be
00000090: a55d 71be 2891 0ebe 4199 90bf aadc 33bd
000000a0: 669e 8f3c d7a8 153f dfb5 553f 9de3 0840
000000b0: bf1b 26bf 57a2 ac3e d504 2ebf e4f1 17bf
000000c0: 05d2 21bf 96b1 72be 9f73 f6be b253 363f
000000d0: 6afa 4ebe 9753 19bd 7b3d 28be 10ee 843e
000000e0: 634e 143e 77bb 03be ddfa 91be 486c dcbc
000000f0: e7cc 49be cf22 e1bd f1c2 4cbe cfba 0e3e
00000100: 9a81 253e 001e 30be efcd 033d 1d86 9cbe
00000110: ec60 3cbd 8337 513e bd6b 1f3e 196c 733e
00000120: d69f a03e 7d7a 5ebe c062 a3be 8602 1b3c
00000130: eb90 febe e7e8 4a3e a975 9ebc 1306 b5bd
00000140: aadc e33d 09d8 c8bd 1ab7 3bbf 8c68 543d
00000150: bb4b 32be 3ab8 93be 74dd 403e 410b fb3c
00000160: d909 96be d763 9e3d 812e 46be dc60 adbd
00000170: 9863 8ebe cb2d abbe 2e9e b43c afad 1ebe
00000180: 3eab 5a3e cdc0 3dbe bb2e e8be 04c3 5bbf
00000190: f221 6abe 1dc8 92be 3f1e f03e 5a1d c03c
000001a0: 3651 f9be 8a7f fbbd a465 7fbe bc7b e6bd
000001b0: 8c0d 1d3d f4f0 fabe de14 99be f9c3 113f
000001c0: cabc 37bf 366d 093e 12a4 403e d4b1 33bf
000001d0: 40f8 61be 50a3 ab3e 17c7 cabd 0fe4 103f
000001e0: b231 d13d e798 a2be 854a f7be 0465 103e
000001f0: 66ad 61bf 0a6e 61bf 8744 8a3d 8b1e 203e
00000200: f1d9 c3be 2c17 10be e723 b63e 9f2c 933d
00000210: ed7d 08be 7366 a3bd f3d1 efbd 3197 adbd
00000220: 8dce b4be 9368 66be aeb3 bcbd fa14 cfbe
00000230: c46e 0fbf 5cba bf3d 3d1b 01be 425c 163f
00000240: 1c56 11bc fab6 1abc 0314 b1be ae25 72be
00000250: 90e6 afba e0da bfbe e40b 5dbe c812 3c3f
00000260: e081 4bbb 63db cb3d 2ac7 70be 0829 3ebe
00000270: 46a9 1bbf f834 cb3c 4869 8dbe 9cc1 1dbf
00000280: 06cd 26be 0898 67be 85ed 023f 7ff2 2c3e
00000290: 9754 2fbf 92fc e5bc f4db 0d3f 5261 2ebe
000002a0: 7ba9 fbbe a15d 9dbe f68d f63e 98ff 52be
000002b0: 6920 f7be d86f f0bd 7ee0 fa3d d9f7 823c
000002c0: 94b3 b5bc 22b0 373e e0e0 35be a6f3 273e
000002d0: 186c 093e 950b 1e3f e910 68be bb70 8cbe
000002e0: c464 39bc 6776 a7be cffa ddbd ca67 503e
000002f0: 1811 20bd e195 d8bd 112a b1be 3d6f 16bf
00000300: 93e7 093e aab4 813d 7c27 dfbe a41a 80bc
00000310: 822d 4ebe 6c51 0abf 997f 2dbf 1820 01be

linear_4.weight f4 [200, 200]
-0.19622694 0.065576546 -0.18439065 0.32707778 0.06635177 0.20306502 0.051738374 -0.77218586
-0.35997492 0.09625647 -0.08190021 0.1648457 0.18974997 -0.09782308 0.11364038 -0.20675497
-0.509692 -0.34688836 -0.19775817 -0.34524792 -0.015995521 -0.14267059 0.38911024 -0.04229785
0.209964 0.14173448 -0.26002142 0.2935139 0.035690952 0.08637679 -0.5562277 -0.4693325
-0.21093467 -0.17275862 -0.23824403 0.25850588 -0.21067367 0.44803044 -0.32783645 -0.13045388
-0.6734725 -0.36247414 0.13797744 -0.17026938 0.19851851 -0.3508405 0.095952496 0.16143589
-0.25087625 -0.04722954 0.17498024 -0.009511261 -0.14444098 -0.054079693 -0.023317706 -0.136347
0.08669105 -0.2929393 -0.2886949 -0.37071484 0.18053646 -0.06348194 -0.62569195 0.02930786
-0.33139154 0.0794307 0.23215352 -0.09559638 0.27624255 0.25618604 0.1695351 0.07228364
-0.61105263 -0.071346685 -0.2612258 -0.3813154 -0.1806669 0.16947056 -0.41216874 -0.2784584
-0.29642674 -0.030755954 -0.28498366 0.09046504 -0.44683948 0.006818833 0.22942436 -0.051123098
-0.04157104 0.18013076 0.079482436 -0.052681893 -0.16757593 0.038299017 -0.17830627 0.07130618
-0.18767083 -0.10703525 -0.3274406 -0.5001449 0.0048580253 0.12160955 -0.06975992 0.3498743
-0.36283502 -0.028932825 -0.070259795 0.3055912 -0.5057259 0.17626488 0.115243115 -0.14791399
0.17856877 -0.05838962 0.5364363 0.26146775 0.06665156 0.103737876 0.07535584 -0.3464182
0.12601939 0.46907213 -0.9012473 0.546337 -0.26144695 -0.22199577 -0.063269325 -0.26523688
-0.17040892 -0.62326485 -0.63301647 -0.16595207 0.44612417 -0.09988934 0.07993862 0.316153
0.17865232 -0.09917089 0.074007906 0.17662583 0.02001901 -0.111173026 0.026542973 0.16673848
-0.20785397 -0.28466028 -0.32544357 -0.26347065 -0.21398793 0.12961659 -0.122408874 0.34675947
-0.25428557 0.17167829 0.14607945 0.6629863 -0.29953796 -0.36153123 0.089748584 -0.16295348
-0.2564533 -0.33395302 0.23308578 0.029075861 -0.07995205 0.29060853 0.17298402 -0.31315088
-0.44459903 -0.4561403 0.4820782 -0.6413223 -0.33853927 0.01901761 -0.2679858 -0.15185468
-0.06104377 0.022055859 0.22982249 0.025739495 -0.0033863322 -0.7182177 -0.5610192 0.11038583
0.024803147 -0.009938269 0.01352388 -0.18281214 -0.38048625 0.014054462 -0.023744738 0.12832384
0.3743329 0.17950137 -0.52724385 0.10921731 0.027284717 -0.0951508 0.20802157 0.2653855
-0.22874682 -0.121598914 -0.5064854 0.079291075 -0.033075187 -0.0916509 0.34641623 -0.05650425
-0.5298142 0.0915672 0.095438324 0.077681676 -0.016027987 0.02644574 -0.030419234 -0.14571686
-0.30024755 -0.09101012 0.34146458 0.14628442 0.09852156 -0.1453957 0.06525003 -0.03008303
0.11558313 -0.13832964 -0.074786365 -0.14933124 0.031889837 -0.047168482 0.14292778 -0.30784342
-0.015231935 0.16622104 0.045842603 -0.2014189 -0.4247509 -0.25941217 -0.45206413 -0.15564144
-0.19882004 0.283237 -0.46430027 -0.17391545 -0.37174174 -0.12502714 -0.230085 -0.04049182
-0.08717675 -0.47673196 0.099544495 -0.2042027 -0.062191647 0.07141876 -0.06607245 -0.48767316
00000000: b7ef 48be ff4c 863d e7d0 3cbe bd76 a73e
00000010: 70e3 873d 47f0 4f3e 9eeb 533d f9ad 45bf
00000020: a24e b8be 1d22 c53d 4cbb a7bd 50cd 283e
00000030: d14d 423e 7857 c8bd 4abc e83d 93b7 53be
00000040: 2d7b 02bf 5a9b b1be 1e81 4abe 56c4 b0be
00000050: 0a09 83bc 3d18 12be 7539 c73e 8340 2dbd
00000060: ce00 573e d822 113e 8721 85be 7447 963e
00000070: ad30 123d 51e6 b03d f064 0ebf 594c f0be
00000080: 42ff 57be a3e7 30be 3ef6 73be e25a 843e
00000090: d7ba 57be 3f64 e53e 2eda a7be b495 05be
000000a0: b268 2cbf 3696 b9be f549 0d3e 195b 2ebe
000000b0: 7048 4b3e 5ea1 b3be be82 c43d 734f 253e
000000c0: da72 80be c373 41bd 052e 333e 1fd5 1bbc
000000d0: 56e8 13be ab82 5dbd c604 bfbc 8c9e 0bbe
000000e0: 148b b13d 24fc 95be d1cf 93be 56ce bdbe
000000f0: 8dde 383e d202 82bd 592d 20bf 0a17 f03c
00000100: 27ac a9be 90ac a23d a7b9 6d3e 09c8 c3bd
00000110: aa6f 8d3e d12a 833e 9c9a 2d3e 7209 943d
00000120: f26d 1cbf 361e 92bd 63bf 85be c63b c3be
00000130: be00 39be b189 2d3e c807 d3be 1992 8ebe
00000140: 3fc5 97be e9f3 fbbc 61e9 91be bc45 b93d
00000150: 25c8 e4be 8470 df3b 38ee 6a3e 7466 51bd
00000160: 6546 2abd 3374 383e b0c7 a23d f8c8 57bd
00000170: 0699 2bbe 6edf 1c3d eb95 36be f908 923d
00000180: c82c 40be 4c35 dbbd 4ba6 a7be 7f09 00bf
00000190: 1230 9f3b 6e0e f93d 4ade 8ebd b922 b33e
000001a0: 83c5 b9be 8804 edbc 5ee4 8fbd 7376 9c3e
000001b0: 4177 01bf c87e 343e 9504 ec3d c476 17be
000001c0: bbda 363e f429 6fbd e453 093f 1adf 853e
000001d0: 9d80 883d 8674 d43d 2a54 9a3d ba5d b1be
000001e0: 3a0b 013e 392a f03e 25b8 66bf bedc 0b3f
000001f0: 60dc 85be dc52 63be 5993 81bd 21cd 87be
00000200: ad7f 2ebe 498e 1fbf 5e0d 22bf 57ef 29be
00000210: 636a e43e c892 ccbd dcb6 a33d cede a13e
00000220: a2f0 363e 1c1a cbbd 7591 973d 67dd 343e
00000230: e8fe a33c afae e3bd a670 d93c 7ebd 2a3e
00000240: acd7 54be febe 91be 8aa0 a6be a0e5 86be
00000250: a71f 5bbe 36ba 043e 81b1 fabd 758a b13e
00000260: b831 82be 6fcc 2f3e da95 153e 78b9 293f
00000270: 0a5d 99be 9f1a b9be 1bce b73d 47dd 26be
00000280: d94d 83be e4fb aabe 0aae 6e3e 8030 ee3c
00000290: e6bd a3bd a4ca 943e b922 313e 5055 a0be
000002a0: 7ca2 e3be 398b e9be f4d2 f63e b32d 24bf
000002b0: 0555 adbe d2ca 9b3c 6f35 89be cb7f 1bbe
000002c0: 0809 7abd 7dae b43c 9656 6b3e a2db d23c
000002d0: 3aed 5dbb 1ddd 37bf f49e 0fbf f711 e23d
000002e0: f82f cb3c 1fd4 22bc 4493 5d3c 1b33 3bbe
000002f0: 18cf c2be b044 663c 5384 c2bc 5367 033e
00000300: 90a8 bf3e 35cf 373e 74f9 06bf 53ad df3d
00000310: 3384 df3c 6cde c2bd 9b03 553e 9ce0 873e
00000320: 9b3c 6abe da08 f9bd 07a9 01bf 5c63 a23d
00000330: d979 07bd 78b3 bbbd 785d b13e 0071 67bd
00000340: e7a1 07bf 9687 bb3d 2b75 c33d 9217 9f3d
00000350: 204d 83bc bda4 d83c c231 f9bc cd36 15be
00000360: 0cba 99be 8463 babd 72d4 ae3e 95cb 153e
00000370: acc5 c93d 9ce2 14be cfa1 853d b070 f6bc
00000380: d9b6 ec3d 49a6 0dbe 9829 99bd 4aea 18be
00000390: eb9e 023d bd33 41bd a95b 123e a79d 9dbe
000003a0: 5e8f 79bc d935 2a3e 74c5 3b3d c240 4ebe
000003b0: f378 d9be acd1 84be f374 e7be 7860 1fbe
000003c0: 7b97 4bbe 7104 913e c4b8 edbe e416 32be
000003d0: ef54 bebe 1d07 00be 679b 6bbe c0da 25bd
000003e0: b989 b2bd 3616 f4be fcdd cb3d 831a 51be
000003f0: abbc 7ebd 0044 923d fe50 87bd 4cb0 f9be

linear_4.bias f4 [200]
-0.42771327 -0.053747527 -0.21679777 -0.2629491 -0.5670965 2.395932 -0.5817592 -0.29428962
-0.31086254 1.7486025 -0.4073793 -0.13333423 -0.2428854 -0.42760742 -0.15427758 -2.9359317
-0.2326494 -0.1999905 -0.11558636 0.9175884 -0.41980115 -1.4078577 -0.498373 -0.19410641
0.18770759 -1.9206886 -0.28067803 1.2367156 -0.49060315 0.20810874 -0.04208541 -0.07712233
-0.5176969 -0.37115335 -0.2682779 0.6750368 -0.602779 0.28048313 -0.020121936 0.22014064
1.0815201 0.3831619 -0.6034699 -0.23976305 -0.037488196 0.17163399 0.38455006 -0.3488752
1.8258313 -0.18706018 -0.07584733 -0.33978775 0.11717469 -0.248518 -0.19799966 1.4935758
-0.58313596 0.08488907 0.507463 0.6238003 -0.13275996 1.549345 -0.48005256 -0.28377572
-0.75423974 -0.37436214 0.34167126 0.8566333 2.1258357 -0.48877746 0.770934 -0.05461862
0.098150276 -0.06490547 0.120519914 -0.52935094 1.9158419 0.27405182 -0.635185 -0.2977027
0.680947 -0.20213257 -0.16326965 0.63853383 -0.25612018 -0.24782623 1.4027411 -0.44528076
-0.40956077 2.248548 -0.4345676 -0.010229703 -0.3877105 -0.44697222 -0.6666005 0.51856154
0.291304 -0.6030387 -0.14536569 1.8075471 0.13497742 -0.40062493 -1.4219588 -0.6330163
1.1420997 0.27505612 -0.3379696 -0.80325794 -0.16628194 0.7776666 -0.13215737 0.18580227
-0.19352241 -0.43643588 0.19344106 -0.22559135 -0.4595993 0.30451062 0.42780882 -0.38958356
0.31235677 -0.39905536 1.2155755 0.036088426 -0.28310183 -0.058114138 -0.17727327 -0.5532203
0.7977494 -0.4148577 -0.08149409 1.8467748 0.9379981 -0.2980385 -0.21309762 2.0788255
0.049958035 -0.13834642 0.2220379 -0.16553393 0.15788372 -0.03501456 -0.13545504 1.5905452
-0.20339279 -0.12070007 -0.29578096 -0.026225451 -0.4777128 -0.3854099 -0.17685555 -0.6004915
-0.15488793 -0.66127974 -0.32125217 0.35572588 -0.60640836 -0.6435346 -0.5591743 1.4775008
0.06332398 1.0634087 0.22748503 -0.4848842 0.10452262 0.17644827 0.017443324 -0.5732237
-0.48995766 -0.12397076 0.3489226 -0.30512074 0.07972623 0.03603761 0.46666566 1.1568191
-0.305616 1.5984746 0.5676368 0.3459031 1.3051906 -0.37552065 0.08920401 -0.3984561
-0.116998605 0.12548381 1.0082284 0.09315144 -0.20090874 -0.4490613 0.13262714 -0.5488508
-0.05668114 -0.36627388 -0.0749228 0.15778063 -0.47689924 -0.2631459 0.95502067 -0.22173485
00000000: 3cfd dabe 5e26 5cbd 3c00 5ebe 44a1 86be
00000010: 3c2d 11bf f356 1940 2cee 14bf 21ad 96be
00000020: 6029 9fbe 35d2 df3f 0594 d0be c588 08be
00000030: f3b6 78be 5cef dabe f1fa 1dbe 4ee6 3bc0
00000040: a53b 6ebe 4fca 4cbe 8bb8 ecbd 13e7 6a3f
00000050: 2df0 d6be ae34 b4bf bf2a ffbe d5c3 46be
00000060: 6b36 403e 20d9 f5bf 08b5 8fbe b24c 9e3f
00000070: 5630 fbbe 751a 553e c061 2cbd 50f2 9dbd
00000080: c987 04bf d007 bebe b95b 89be 36cf 2c3f
00000090: b94f 1abf 7c9b 8f3e c2d6 a4bc 8c6c 613e
000000a0: 406f 8a3f cc2d c43e 017d 1abf 7284 75be
000000b0: 398d 19bd d2c0 2f3e bfe3 c43e c59f b2be
000000c0: d7b4 e93f b48c 3fbe d855 9bbd a9f8 adbe
000000d0: 49f9 ef3d 817b 7ebe 6cc0 4abe 7e2d bf3f
000000e0: 6648 15bf 52da ad3d 18e9 013f 60b1 1f3f
000000f0: 3af2 07be f050 c63f 73c9 f5be 0d4b 91be
00000100: db15 41bf 65ac bfbe 89ef ae3e 524c 5b3f
00000110: b10d 0840 0a41 fabe ee5b 453f c6b7 5fbd
00000120: 0303 c93d 29ed 84bd 25d3 f63d 8b83 07bf
00000130: 4f3a f53f 8550 8c3e 7c9b 22bf 7d6c 98be
00000140: 8b52 2e3f d7fb 4ebe 2930 27be f476 233f
00000150: 2f22 83be 29c6 7dbe 058d b33f d7fb e3be
00000160: f3b1 d1be 36e8 0f40 a57f debe 7c9a 27bc
00000170: fe81 c6be 8bd9 e4be 55a6 2abf 73c0 043f
00000180: cc25 953e bf60 1abf beda 14be b45d e73f
00000190: 8537 0a3e b61e cdbe bf02 b6bf 5b0d 22bf
000001a0: 5330 923f 28d4 8c3e 5a0a adbe 50a2 4dbf
000001b0: d045 2abe 2915 473f 4354 07be f342 3e3e
000001c0: bd2a 46be 8674 dfbe 6a15 463e 6b01 67be
000001d0: 9950 ebbe d1e8 9b3e c209 db3e 7f77 c7be
000001e0: 3aed 9f3e fc50 ccbe fa97 9b3f 75d1 133d
000001f0: b9f2 90be 1709 6ebd 2087 35be d89f 0dbf
00000200: 4e39 4c3f 3a68 d4be 60e6 a6bd 1e63 ec3f
00000210: a520 703f 8198 98be 4336 5abe 7a0b 0540
00000220: cca0 4c3d afaa 0dbe e75d 633e ba81 29be
00000230: 45ac 213e 6d6b 0fbd bab4 0abe fc96 cb3f
00000240: 3346 50be 9931 f7bd 9a70 97be c2d6 d6bc
00000250: c696 f4be 7254 c5be 9f19 35be d0b9 19bf
00000260: f19a 1ebe a149 29bf 2a7b a4be b421 b63e
00000270: 943d 1bbf afbe 24bf 0c26 0fbf bf1e bd3f
00000280: 01b0 813d c71d 883f d6f1 683e be42 f8be
00000290: f50f d63d dbae 343e 4de5 8e3c cabe 12bf
000002a0: bbdb fabe 62e4 fdbd fca5 b23e c938 9cbe
000002b0: 8147 a33d 2c9c 133d cdee ee3e a612 943f
000002c0: b379 9cbe d19a cc3f a550 113f 361a b13e
000002d0: 7c10 a73f 3e44 c0be 98b0 b63d 7002 ccbe
000002e0: f79c efbd d47e 003e a10d 813f 2fc6 be3d
000002f0: 05bb 4dbe 5deb e5be 69cf 073e 7c81 0cbf
00000300: 7c2a 68bd 4088 bbbe 2071 99bd 3f91 213e
00000310: 232c f4be 0fbb 86be 3c7c 743f 760e 63be
